cifar10.tflite (tflite, 82152 bytes, 10 tensors)

model/dense/MatMul i1 [10, 3072] scale=0.003775517 zero_point=0
0.08683689 0.09816344 0.056632753 0.10571448 0.03775517 0.08683689 0.16612275 0.18500033
0.022653103 0.011326551 -0.015102068 -0.23408206 0.19632688 0.045306206 -0.022653103 0.12459206
-0.15102068 0.11704103 0.12081654 0.02642862 -0.1547962 -0.13969412 0.033979654 -0.09061241
-0.06040827 0.06795931 0.10948999 0.1321431 -0.02642862 -0.041530687 0.08683689 -0.2907148
0.011326551 -0.011326551 0.07173482 -0.041530687 0.003775517 0.03775517 -0.018877584 -0.083061375
0.07173482 -0.12836757 0.07928586 0.015102068 0.06795931 0.09061241 0.09061241 0.04908172
0.018877584 -0.15102068 -0.12836757 0.06040827 -0.045306206 0.11326551 0.007551034 0.08683689
0.007551034 -0.018877584 -0.06795931 -0.041530687 -0.04908172 0.015102068 0.018877584 -0.094387926
0.07928586 0.06795931 0.02642862 -0.094387926 0.10571448 -0.041530687 -0.03775517 0.10948999
0.07928586 -0.06418379 0.04908172 0.018877584 0.033979654 -0.07551034 0.14724517 0.018877584
-0.13969412 0.101938955 0.007551034 0.018877584 -0.06795931 0.045306206 0.011326551 -0.08683689
-0.10948999 0.04908172 -0.06795931 -0.022653103 0.12459206 -0.21897998 -0.022653103 0.14346965
0.11704103 -0.10948999 -0.12081654 -0.11326551 0.094387926 -0.1547962 -0.022653103 0.05285724
0.09061241 0.033979654 0.07173482 0.030204136 -0.16234723 -0.06040827 -0.06040827 -0.011326551
-0.15102068 0.09061241 -0.022653103 0.21142896 -0.11326551 -0.07173482 0.15102068 -0.13969412
0.06795931 0.07928586 0.12836757 0.041530687 -0.101938955 -0.007551034 0.030204136 -0.05285724
0.07173482 -0.2001024 0.09816344 -0.083061375 0.16234723 0.07173482 0.03775517 0.015102068
0.022653103 -0.003775517 -0.1547962 0.033979654 -0.24163309 0.094387926 0.08683689 -0.02642862
-0.05285724 0.04908172 0.015102068 0.011326551 -0.018877584 -0.2001024 -0.022653103 0.07551034
-0.041530687 0.007551034 0.015102068 -0.24163309 0.08683689 -0.05285724 -0.07173482 -0.1547962
0.14346965 0.030204136 -0.083061375 -0.13969412 0.16612275 -0.033979654 0.06418379 -0.23030654
-0.045306206 0.05285724 0.04908172 -0.10571448 -0.11326551 -0.19632688 0.12836757 0.09816344
0.11704103 0.12459206 0.0 0.0 0.011326551 -0.1321431 -0.083061375 0.045306206
0.02642862 -0.1321431 -0.11704103 0.11326551 -0.21520446 -0.015102068 -0.06418379 -0.06795931
-0.06040827 0.101938955 -0.06040827 0.16989827 0.12081654 0.083061375 -0.12081654 0.23408206
0.094387926 -0.007551034 -0.04908172 -0.007551034 0.03775517 -0.02642862 0.03775517 -0.018877584
-0.12836757 0.25673515 0.094387926 -0.041530687 0.11326551 -0.03775517 0.0 -0.12081654
-0.08683689 -0.06795931 0.033979654 -0.06418379 -0.015102068 -0.08683689 0.04908172 -0.20765343
0.08683689 0.09061241 -0.16234723 0.07173482 -0.1547962 -0.022653103 0.03775517 -0.007551034
-0.045306206 -0.015102068 -0.17367378 0.094387926 -0.06040827 0.030204136 0.04908172 0.1321431
0.094387926 -0.21520446 -0.045306206 0.14346965 -0.056632753 0.1321431 -0.17367378 0.094387926
-0.018877584 -0.16234723 -0.16989827 -0.015102068 -0.15102068 0.03775517 -0.02642862 -0.101938955
00000000: 171a 0f1c 0a17 2c31 0603 fcc2 340c fa21
00000010: d81f 2007 d7db 09e8 f012 1d23 f9f5 17b3
00000020: 03fd 13f5 010a fbea 13de 1504 1218 180d
00000030: 05d8 de10 f41e 0217 02fb eef5 f304 05e7
00000040: 1512 07e7 1cf5 f61d 15ef 0d05 09ec 2705
00000050: db1b 0205 ee0c 03e9 e30d eefa 21c6 fa26
00000060: 1fe3 e0e2 19d7 fa0e 1809 1308 d5f0 f0fd
00000070: d818 fa38 e2ed 28db 1215 220b e5fe 08f2
00000080: 13cb 1aea 2b13 0a04 06ff d709 c019 17f9
00000090: f20d 0403 fbcb fa14 f502 04c0 17f2 edd7
000000a0: 2608 eadb 2cf7 11c3 f40e 0de4 e2cc 221a
000000b0: 1f21 0000 03dd ea0c 07dd e11e c7fc efee
000000c0: f01b f02d 2016 e03e 19fe f3fe 0af9 0afb
000000d0: de44 19f5 1ef6 00e0 e9ee 09ef fce9 0dc9
000000e0: 1718 d513 d7fa 0afe f4fc d219 f008 0d23
000000f0: 19c7 f426 f123 d219 fbd5 d3fc d80a f9e5

model/conv0_dwsc5/Conv2D i1 [192, 1, 1, 96]
41 -13 18 -29 -31 22 -36 -24
10 2 19 -20 6 60 -15 8
-9 -3 -31 -25 -18 -66 -25 27
-62 40 9 -21 -53 39 -56 -72
-66 11 -7 18 19 114 -87 5
-122 24 -89 17 18 -68 -35 38
-9 -49 99 98 -53 -16 -69 -46
33 36 25 32 7 -63 67 11
-113 50 7 46 -107 95 -40 18
-60 -44 21 -12 53 11 -5 7
27 -11 37 -21 -30 20 23 61
5 -127 26 -65 2 -37 -36 37
-15 -45 44 4 39 -29 21 -46
12 -8 -8 -24 -1 0 33 -42
-70 -4 10 -9 24 -53 11 7
-51 -25 3 -6 -3 38 -40 44
-59 -7 -5 -6 58 16 2 14
8 1 -29 -2 -43 41 -15 -22
21 -19 -22 -13 -61 -47 -48 -5
62 -54 66 15 54 -2 -66 13
-24 21 -42 63 44 -22 11 21
30 -87 94 25 16 -40 42 -34
12 -23 23 -35 -33 -127 67 -56
-35 -23 97 -30 57 23 0 -7
-5 -64 1 27 19 -14 60 -24
-6 -117 24 -5 43 49 11 32
-38 54 64 -47 41 -70 -127 7
-18 -61 11 -8 -28 11 -7 -10
-21 -10 26 -23 -38 33 -90 13
77 48 2 -57 14 -1 22 15
25 -55 -23 -20 -38 -44 -18 -44
-17 -58 42 16 8 -32 2 16
00000000: 29f3 12e3 e116 dce8 0a02 13ec 063c f108
00000010: f7fd e1e7 eebe e71b c228 09eb cb27 c8b8
00000020: be0b f912 1372 a905 8618 a711 12bc dd26
00000030: f7cf 6362 cbf0 bbd2 2124 1920 07c1 430b
00000040: 8f32 072e 955f d812 c4d4 15f4 350b fb07
00000050: 1bf5 25eb e214 173d 0581 1abf 02db dc25
00000060: f1d3 2c04 27e3 15d2 0cf8 f8e8 ff00 21d6
00000070: bafc 0af7 18cb 0b07 cde7 03fa fd26 d82c
00000080: c5f9 fbfa 3a10 020e 0801 e3fe d529 f1ea
00000090: 15ed eaf3 c3d1 d0fb 3eca 420f 36fe be0d
000000a0: e815 d63f 2cea 0b15 1ea9 5e19 10d8 2ade
000000b0: 0ce9 17dd df81 43c8 dde9 61e2 3917 00f9
000000c0: fbc0 011b 13f2 3ce8 fa8b 18fb 2b31 0b20
000000d0: da36 40d1 29ba 8107 eec3 0bf8 e40b f9f6
000000e0: ebf6 1ae9 da21 a60d 4d30 02c7 0eff 160f
000000f0: 19c9 e9ec dad4 eed4 efc6 2a10 08e0 0210

model/bn0_dwsc5/FusedBatchNormV3;model/dwc0_dwsc5/depthwise;model/dwc0_dwsc5/BiasAdd/ReadVariableOp;model/dwc0_dwsc5/BiasAdd i1 [1, 3, 3, 96]
55 -42 59 -24 60 -117 -75 -48
-51 -89 20 104 -2 -51 34 126
95 -1 -87 90 127 89 94 -63
23 62 112 12 6 10 -31 -127
42 101 -38 115 9 1 87 -48
-34 12 -78 -127 117 26 27 -32
98 88 25 127 3 -98 -101 108
-27 -127 68 -27 127 13 -27 -87
88 20 -13 69 -8 127 -7 101
36 127 73 21 107 -26 15 -127
34 40 6 -88 -72 -40 55 127
66 21 -18 32 -3 112 -102 -112
-9 2 63 -24 28 -41 -92 -16
-109 112 51 86 117 -48 110 74
61 33 17 127 14 127 33 -33
-32 73 127 -34 87 127 -36 -42
93 121 -123 -40 43 -127 12 -48
47 37 -30 -58 127 8 52 -31
54 -38 -29 76 22 69 -94 86
-108 -61 33 35 102 38 -75 -24
-11 53 97 -18 -127 126 49 35
127 82 45 114 72 8 -76 -78
-116 78 8 -62 88 39 33 29
-38 57 74 28 -127 104 -127 21
-40 5 75 115 -126 -127 -127 69
-11 127 106 42 -21 -64 73 79
46 -28 37 42 -45 76 0 -43
11 59 53 -127 3 48 10 122
13 -2 -102 -82 -12 -13 23 -64
32 15 57 -47 51 -38 -101 82
-48 -127 -34 38 -52 39 51 38
-76 -25 38 38 57 41 -82 -78
00000000: 37d6 3be8 3c8b b5d0 cda7 1468 fecd 227e
00000010: 5fff a95a 7f59 5ec1 173e 700c 060a e181
00000020: 2a65 da73 0901 57d0 de0c b281 751a 1be0
00000030: 6258 197f 039e 9b6c e581 44e5 7f0d e5a9
00000040: 5814 f345 f87f f965 247f 4915 6be6 0f81
00000050: 2228 06a8 b8d8 377f 4215 ee20 fd70 9a90
00000060: f702 3fe8 1cd7 a4f0 9370 3356 75d0 6e4a
00000070: 3d21 117f 0e7f 21df e049 7fde 577f dcd6
00000080: 5d79 85d8 2b81 0cd0 2f25 e2c6 7f08 34e1
00000090: 36da e34c 1645 a256 94c3 2123 6626 b5e8
000000a0: f535 61ee 817e 3123 7f52 2d72 4808 b4b2
000000b0: 8c4e 08c2 5827 211d da39 4a1c 8168 8115
000000c0: d805 4b73 8281 8145 f57f 6a2a ebc0 494f
000000d0: 2ee4 252a d34c 00d5 0b3b 3581 0330 0a7a
000000e0: 0dfe 9aae f4f3 17c0 200f 39d1 33da 9b52
000000f0: d081 de26 cc27 3326 b4e7 2626 3929 aeb2

model/conv0_dwsc4/Conv2D i1 [96, 1, 1, 48]
90 -29 97 53 -63 106 -4 -33
-7 -27 15 24 6 -14 14 -8
-68 -51 -37 -82 91 -5 -3 -49
-51 -66 58 -1 -23 -14 44 58
53 30 77 -18 5 -9 -25 28
-47 127 -1 67 23 73 9 46
32 -28 -56 127 23 47 58 -24
-66 -25 58 23 -23 9 -53 -2
5 -58 57 39 22 12 -61 -96
-73 -93 -107 13 52 -35 -58 11
-13 27 -2 -18 11 9 -27 80
69 48 -89 82 29 83 7 56
68 64 -38 -23 -4 -93 123 -7
-71 12 64 -22 44 -50 29 -127
-22 46 33 -34 -21 15 69 16
-56 -20 -79 19 26 10 -15 -15
-49 68 21 -55 -36 -40 -29 88
30 49 -1 17 58 22 -6 3
25 -88 22 64 -76 -3 22 -28
-31 -4 -48 -5 3 43 3 17
5 78 38 53 -6 -19 3 5
-75 19 -44 -42 -15 114 -127 -26
85 -88 18 -6 -9 -37 23 -6
51 -9 -48 10 -65 22 -49 -22
44 24 74 -29 -3 -113 88 -43
36 -18 -127 82 2 102 11 -45
-26 75 33 -65 -26 -20 43 116
69 29 6 -39 4 -16 47 -13
-53 -122 -49 -26 -60 -13 -75 -47
44 -40 55 63 -1 40 -7 67
28 24 76 -26 -58 -66 36 56
-24 30 -93 34 16 31 -12 36
00000000: 5ae3 6135 c16a fcdf f9e5 0f18 06f2 0ef8
00000010: bccd dbae 5bfb fdcf cdbe 3aff e9f2 2c3a
00000020: 351e 4dee 05f7 e71c d17f ff43 1749 092e
00000030: 20e4 c87f 172f 3ae8 bee7 3a17 e909 cbfe
00000040: 05c6 3927 160c c3a0 b7a3 950d 34dd c60b
00000050: f31b feee 0b09 e550 4530 a752 1d53 0738
00000060: 4440 dae9 fca3 7bf9 b90c 40ea 2cce 1d81
00000070: ea2e 21de eb0f 4510 c8ec b113 1a0a f1f1
00000080: cf44 15c9 dcd8 e358 1e31 ff11 3a16 fa03
00000090: 19a8 1640 b4fd 16e4 e1fc d0fb 032b 0311
000000a0: 054e 2635 faed 0305 b513 d4d6 f172 81e6
000000b0: 55a8 12fa f7db 17fa 33f7 d00a bf16 cfea
000000c0: 2c18 4ae3 fd8f 58d5 24ee 8152 0266 0bd3
000000d0: e64b 21bf e6ec 2b74 451d 06d9 04f0 2ff3
000000e0: cb86 cfe6 c4f3 b5d1 2cd8 373f ff28 f943
000000f0: 1c18 4ce6 c6be 2438 e81e a322 101f f424

model/bn0_dwsc4/FusedBatchNormV3;model/dwc0_dwsc4/depthwise;model/dwc0_dwsc4/BiasAdd/ReadVariableOp;model/dwc0_dwsc4/BiasAdd i1 [1, 3, 3, 48]
-50 40 21 -68 -51 -16 -62 115
68 22 65 -9 -26 70 -12 -48
3 -50 -5 2 24 5 17 -4
127 -7 -57 65 37 83 -2 96
-36 8 -27 -20 7 81 -55 27
-127 50 -17 -38 122 -98 -2 -4
-126 -127 -2 -72 -58 5 -39 -51
127 24 75 -31 -41 127 93 -90
-9 -127 18 -53 17 67 4 57
0 29 18 43 -59 -22 57 127
53 125 -6 40 15 -52 127 -17
-62 -24 12 21 127 36 21 4
33 13 18 -36 86 -52 37 -127
72 23 31 50 45 106 21 -59
-24 1 24 -127 -4 4 -56 72
-123 -13 35 22 -127 -102 52 -108
-56 87 -8 -64 30 -66 63 23
86 -28 5 -11 -118 47 -39 34
-106 -7 -94 -21 -110 -24 114 -21
-46 -73 -35 -25 -14 -7 -11 47
27 -38 -81 72 17 -45 -113 -127
84 -127 31 43 -27 107 5 17
-21 25 -55 -22 6 2 -67 127
-95 -49 -80 -122 62 -37 -21 -61
-58 -96 -127 -25 -17 42 25 42
39 -22 -36 15 -36 -86 127 127
127 22 -26 -12 -121 -38 -127 -92
-42 -61 127 -127 32 43 -71 122
79 3 127 127 -11 90 65 -26
-83 -58 -127 -127 82 70 57 -127
80 -27 -37 -30 127 48 -121 4
31 -94 -48 127 127 -65 -11 67
00000000: ce28 15bc cdf0 c273 4416 41f7 e646 f4d0
00000010: 03ce fb02 1805 11fc 7ff9 c741 2553 fe60
00000020: dc08 e5ec 0751 c91b 8132 efda 7a9e fefc
00000030: 8281 feb8 c605 d9cd 7f18 4be1 d77f 5da6
00000040: f781 12cb 1143 0439 001d 122b c5ea 397f
00000050: 357d fa28 0fcc 7fef c2e8 0c15 7f24 1504
00000060: 210d 12dc 56cc 2581 4817 1f32 2d6a 15c5
00000070: e801 1881 fc04 c848 85f3 2316 819a 3494
00000080: c857 f8c0 1ebe 3f17 56e4 05f5 8a2f d922
00000090: 96f9 a2eb 92e8 72eb d2b7 dde7 f2f9 f52f
000000a0: 1bda af48 11d3 8f81 5481 1f2b e56b 0511
000000b0: eb19 c9ea 0602 bd7f a1cf b086 3edb ebc3
000000c0: c6a0 81e7 ef2a 192a 27ea dc0f dcaa 7f7f
000000d0: 7f16 e6f4 87da 81a4 d6c3 7f81 202b b97a
000000e0: 4f03 7f7f f55a 41e6 adc6 8181 5246 3981
000000f0: 50e5 dbe2 7f30 8704 1fa2 d07f 7fbf f543

model/conv0_dwsc3/Conv2D i1 [48, 1, 1, 24]
50 -91 36 -22 114 36 -18 -85
24 26 -65 -127 121 5 19 5
-13 7 -110 39 -101 -5 48 27
-54 -70 50 56 -112 17 -89 -56
-106 43 16 104 56 -49 96 -127
95 67 -59 15 35 -121 -60 52
27 47 16 61 12 -81 9 -8
127 64 73 11 -55 23 23 4
-22 -126 52 -31 93 -50 6 51
0 9 -1 40 -36 69 94 -42
50 -53 -45 17 38 55 -7 -21
-41 -13 -127 -27 -26 13 35 -56
63 -43 39 20 -74 15 -91 1
-3 -58 110 -28 -24 -67 -58 -97
-127 -13 55 35 17 -60 -64 0
11 -47 -1 -1 29 14 64 87
-66 -30 -46 105 65 -84 32 32
-55 36 -127 0 -9 -57 37 37
5 28 25 127 -58 -12 -27 -20
4 -16 8 -11 -19 -30 49 -102
92 79 38 6 -21 13 -83 28
93 7 -3 -12 127 -21 -37 -125
-76 14 -35 15 68 39 5 -41
31 121 -65 -24 12 -20 -99 -11
26 16 -15 -9 -1 -30 -30 6
40 80 -57 -13 -13 -19 127 -5
18 -23 33 25 -27 2 -12 -41
37 -2 -11 -69 48 -27 -44 -35
86 62 24 24 86 -61 -127 -15
-49 -8 -15 -34 -3 -3 -24 -56
51 -29 -85 -52 -117 79 6 -28
86 52 117 9 79 -25 -36 36
00000000: 32a5 24ea 7224 eeab 181a bf81 7905 1305
00000010: f307 9227 9bfb 301b caba 3238 9011 a7c8
00000020: 962b 1068 38cf 6081 5f43 c50f 2387 c434
00000030: 1b2f 103d 0caf 09f8 7f40 490b c917 1704
00000040: ea82 34e1 5dce 0633 0009 ff28 dc45 5ed6
00000050: 32cb d311 2637 f9eb d7f3 81e5 e60d 23c8
00000060: 3fd5 2714 b60f a501 fdc6 6ee4 e8bd c69f
00000070: 81f3 3723 11c4 c000 0bd1 ffff 1d0e 4057
00000080: bee2 d269 41ac 2020 c924 8100 f7c7 2525
00000090: 051c 197f c6f4 e5ec 04f0 08f5 ede2 319a
000000a0: 5c4f 2606 eb0d ad1c 5d07 fdf4 7feb db83
000000b0: b40e dd0f 4427 05d7 1f79 bfe8 0cec 9df5
000000c0: 1a10 f1f7 ffe2 e206 2850 c7f3 f3ed 7ffb
000000d0: 12e9 2119 e502 f4d7 25fe f5bb 30e5 d4dd
000000e0: 563e 1818 56c3 81f1 cff8 f1de fdfd e8c8
000000f0: 33e3 abcc 8b4f 06e4 5634 7509 4fe7 dc24

model/bn0_dwsc3/FusedBatchNormV3;model/dwc0_dwsc3/depthwise;model/dwc0_dwsc3/BiasAdd/ReadVariableOp;model/dwc0_dwsc3/BiasAdd i1 [1, 3, 3, 24]
13 8 -68 14 12 -16 32 7
73 76 -16 -15 -88 -4 -25 -10
-11 -11 26 41 87 -2 -70 3
-7 69 -92 100 -34 31 127 2
106 -47 -58 41 -40 52 -59 44
-98 -127 -50 -24 40 45 -77 19
-127 -127 61 120 -3 86 41 3
35 17 71 39 127 72 -42 -73
-47 -41 -16 31 -100 11 22 18
-45 98 -83 -104 -66 127 1 -57
44 -7 -42 58 30 -35 75 89
-11 -7 28 74 98 9 -37 127
19 11 -39 -46 38 78 -5 -106
28 127 -96 53 113 127 94 127
27 -96 -127 25 127 127 127 -38
-44 -124 66 112 127 124 64 -127
127 -103 12 -46 -46 49 -60 66
127 -49 -39 -51 95 17 43 59
2 69 -107 -127 -4 -100 100 -23
38 -47 -6 31 88 -39 61 70
-8 10 -18 127 -9 -1 110 -38
44 22 127 -36 98 22 122 -67
-4 -26 -127 127 -17 34 127 49
-8 -59 -65 19 -66 44 34 -127
28 -72 -69 25 30 69 100 -87
66 85 -25 35 -5 61 13 1
54 -35 -38 -48 -16 27 87 -101
00000000: 0d08 bc0e 0cf0 2007 494c f0f1 a8fc e7f6
00000010: f5f5 1a29 57fe ba03 f945 a464 de1f 7f02
00000020: 6ad1 c629 d834 c52c 9e81 cee8 282d b313
00000030: 8181 3d78 fd56 2903 2311 4727 7f48 d6b7
00000040: d1d7 f01f 9c0b 1612 d362 ad98 be7f 01c7
00000050: 2cf9 d63a 1edd 4b59 f5f9 1c4a 6209 db7f
00000060: 130b d9d2 264e fb96 1c7f a035 717f 5e7f
00000070: 1ba0 8119 7f7f 7fda d484 4270 7f7c 4081
00000080: 7f99 0cd2 d231 c442 7fcf d9cd 5f11 2b3b
00000090: 0245 9581 fc9c 64e9 26d1 fa1f 58d9 3d46
000000a0: f80a ee7f f7ff 6eda 2c16 7fdc 6216 7abd
000000b0: fce6 817f ef22 7f31 f8c5 bf13 be2c 2281
000000c0: 1cb8 bb19 1e45 64a9 4255 e723 fb3d 0d01
000000d0: 36dd dad0 f01b 579b

model/conv0_dwsc2/Conv2D i1 [24, 1, 1, 16]
89 -23 127 -32 19 -54 2 70
-7 12 44 55 -33 -1 53 68
36 -1 75 -42 -27 -47 -5 -42
-60 49 -127 -96 45 -21 -83 -73
10 -35 -67 11 -15 -9 -9 -39
-56 -44 -58 33 127 -70 46 113
-57 4 -30 -36 -103 13 51 127
-29 -72 48 5 37 -42 10 2
-84 -3 127 -33 -21 -29 -15 -71
-78 -54 11 -82 57 -13 4 -62
-68 19 98 -8 56 -19 -32 -94
51 -62 -23 86 80 6 -91 127
-53 27 35 -47 52 127 29 -56
18 -35 53 -77 18 -94 -17 -92
10 107 75 -11 23 -127 -25 -12
-3 -15 -9 -33 47 -1 -8 13
-95 20 -87 -30 45 -127 106 46
-35 23 66 15 14 -6 0 23
127 -39 -6 91 -4 110 -113 -12
15 -58 -44 -39 -58 108 60 39
44 2 118 127 44 -8 16 -14
-2 91 47 125 -25 -84 59 45
-26 -63 20 104 82 1 -29 -57
3 127 93 117 43 52 -7 -12
13 114 -103 -39 95 -47 -18 -53
-14 -48 5 51 -127 -85 72 48
20 -40 23 -25 -45 -70 127 47
31 -48 -42 24 -5 42 -107 -78
120 -63 51 8 -89 85 -58 -9
-127 5 -34 6 -81 35 72 -61
59 -73 -28 -127 30 -11 71 -20
12 25 -34 -27 2 -43 59 -107
00000000: 59e9 7fe0 13ca 0246 f90c 2c37 dfff 3544
00000010: 24ff 4bd6 e5d1 fbd6 c431 81a0 2deb adb7
00000020: 0add bd0b f1f7 f7d9 c8d4 c621 7fba 2e71
00000030: c704 e2dc 990d 337f e3b8 3005 25d6 0a02
00000040: acfd 7fdf ebe3 f1b9 b2ca 0bae 39f3 04c2
00000050: bc13 62f8 38ed e0a2 33c2 e956 5006 a57f
00000060: cb1b 23d1 347f 1dc8 12dd 35b3 12a2 efa4
00000070: 0a6b 4bf5 1781 e7f4 fdf1 f7df 2fff f80d
00000080: a114 a9e2 2d81 6a2e dd17 420f 0efa 0017
00000090: 7fd9 fa5b fc6e 8ff4 0fc6 d4d9 c66c 3c27
000000a0: 2c02 767f 2cf8 10f2 fe5b 2f7d e7ac 3b2d
000000b0: e6c1 1468 5201 e3c7 037f 5d75 2b34 f9f4
000000c0: 0d72 99d9 5fd1 eecb f2d0 0533 81ab 4830
000000d0: 14d8 17e7 d3ba 7f2f 1fd0 d618 fb2a 95b2
000000e0: 78c1 3308 a755 c6f7 8105 de06 af23 48c3
000000f0: 3bb7 e481 1ef5 47ec 0c19 dee5 02d5 3b95

model/bn0_dwsc2/FusedBatchNormV3;model/dwc0_dwsc2/depthwise;model/dwc0_dwsc2/BiasAdd/ReadVariableOp;model/dwc0_dwsc2/BiasAdd i1 [1, 3, 3, 16]
-17 68 -7 44 -67 21 -2 -1
-127 110 -127 -24 -36 78 92 -28
-103 127 127 56 -125 58 11 -112
-92 111 -77 -126 24 -100 44 -70
3 -48 0 41 -127 6 28 33
20 54 -57 -64 -127 -122 59 -29
-61 105 83 44 50 -127 79 -30
-109 -127 -66 13 -39 127 63 127
-80 -13 -68 71 35 79 -120 -22
96 -126 -6 111 -53 85 8 112
17 -32 -10 18 -18 -42 -59 -30
93 -75 -70 127 -55 28 31 -73
127 73 14 -9 -97 -113 -23 127
-13 -54 -56 34 6 11 -69 110
-7 -66 -64 -127 -123 89 127 -18
-72 -13 26 0 36 69 127 -66
27 -118 -3 -46 -61 23 -52 -100
5 -74 5 -2 10 -71 -25 -14
00000000: ef44 f92c bd15 feff 816e 81e8 dc4e 5ce4
00000010: 997f 7f38 833a 0b90 a46f b382 189c 2cba
00000020: 03d0 0029 8106 1c21 1436 c7c0 8186 3be3
00000030: c369 532c 3281 4fe2 9381 be0d d97f 3f7f
00000040: b0f3 bc47 234f 88ea 6082 fa6f cb55 0870
00000050: 11e0 f612 eed6 c5e2 5db5 ba7f c91c 1fb7
00000060: 7f49 0ef7 9f8f e97f f3ca c822 060b bb6e
00000070: f9be c081 8559 7fee b8f3 1a00 2445 7fbe
00000080: 1b8a fdd2 c317 cc9c 05b6 05fe 0ab9 e7f2

model/conv1/Conv2D i1 [16, 3, 3, 3]
106 96 87 -127 -114 8 9 -19
-77 1 53 35 -38 3 -26 -24
39 -88 -56 11 -35 -46 -48 38
21 113 95 -29 -70 -28 63 -9
-55 26 23 127 -52 -119 -60 2
-22 -21 40 51 80 50 -94 31
106 -43 80 -2 36 125 127 49
57 -37 -62 30 -26 11 -39 -10
-27 -9 -83 -93 -103 61 9 16
-42 -43 -40 15 -40 36 21 7
60 -55 -61 36 53 36 100 -7
-48 43 79 -117 -84 83 -69 -43
124 -48 -106 52 -61 34 0 10
25 127 -91 -67 -26 -21 -57 -56
-62 -16 66 -44 -41 33 -42 66
4 -82 -17 58 -52 27 127 60
72 54 -116 -75 31 -31 3 19
31 21 -32 10 3 58 66 -28
-17 -21 16 -22 -127 -96 70 -4
37 -49 61 78 4 -81 -33 19
1 14 58 -6 1 69 72 127
-36 -13 -41 -66 -4 -43 -21 -88
-63 59 35 63 57 16 21 -28
-2 -82 -30 -32 27 72 -8 20
42 74 -62 70 77 122 42 19
-95 -39 4 -65 40 41 127 -53
-43 -41 -13 -79 -46 -31 123 18
1 -10 -9 123 -19 -23 21 -116
-6 113 -38 46 39 -90 -28 -43
-127 47 -24 -57 -38 57 22 -18
42 -11 38 -64 -41 101 -30 12
67 -72 -31 38 30 -42 -24 68
00000000: 6a60 5781 8e08 09ed b301 3523 da03 e6e8
00000010: 27a8 c80b ddd2 d026 1571 5fe3 bae4 3ff7
00000020: c91a 177f cc89 c402 eaeb 2833 5032 a21f
00000030: 6ad5 50fe 247d 7f31 39db c21e e60b d9f6
00000040: e5f7 ada3 993d 0910 d6d5 d80f d824 1507
00000050: 3cc9 c324 3524 64f9 d02b 4f8b ac53 bbd5
00000060: 7cd0 9634 c322 000a 197f a5bd e6eb c7c8
00000070: c2f0 42d4 d721 d642 04ae ef3a cc1b 7f3c
00000080: 4836 8cb5 1fe1 0313 1f15 e00a 033a 42e4
00000090: efeb 10ea 81a0 46fc 25cf 3d4e 04af df13
000000a0: 010e 3afa 0145 487f dcf3 d7be fcd5 eba8
000000b0: c13b 233f 3910 15e4 feae e2e0 1b48 f814
000000c0: 2a4a c246 4d7a 2a13 a1d9 04bf 2829 7fcb
000000d0: d5d7 f3b1 d2e1 7b12 01f6 f77b ede9 158c
000000e0: fa71 da2e 27a6 e4d5 812f e8c7 da39 16ee
000000f0: 2af5 26c0 d765 e20c 43b8 e126 1ed6 e844
