sine_model.tflite (tflite, 3168 bytes, 5 tensors)

sequential/dense_1/BiasAdd/ReadVariableOp f4 [16]
0.0 -0.22369164 0.0 -0.14670524 0.19517078 0.28186783 -0.19487326 0.0
0.027964657 0.0 -0.271221 -0.18637992 0.33680832 -0.056572355 -0.19310825 -0.20208856
00000000: 0000 0000 6c0f 65be 0000 0000 e639 16be
00000010: d9da 473e fb50 903e db8c 47be 0000 0000
00000020: 2316 e53c 0000 0000 7bdd 8abe 61da 3ebe
00000030: 2472 ac3e 6ab8 67bd 2bbe 45be 4ef0 4ebe

sequential/dense/BiasAdd/ReadVariableOp f4 [16]
0.0 0.0 -0.7766352 0.0 0.0 0.0 0.033654835 0.0
0.0 0.0 0.0 0.0 0.13210182 -0.018365853 0.042420704 -1.099274
00000000: 0000 0000 0000 0000 91d1 46bf 0000 0000
00000010: 0000 0000 0000 0000 a7d9 093d 0000 0000
00000020: 0000 0000 0000 0000 0000 0000 0000 0000
00000030: b345 073e fc73 96bc 55c1 2d3d 03b5 8cbf

sequential/dense/MatMul f4 [16, 1]
-0.085598946 -0.5821928 0.50943035 -0.49060848 -0.36124766 -0.26302844 0.6670639 -0.16239467
-0.30240414 -0.44412875 -0.32083103 -0.45156097 0.66828924 0.3665488 0.3688311 0.45688653
00000000: 804e afbd 960a 15bf 076a 023f 0931 fbbe
00000010: 74f5 b8be aaab 86be b3c4 2a3f ca4a 26be
00000020: b7d4 9abe d864 e3be f743 a4be 0033 e7be
00000030: 0115 2b3f 49ac bb3e 6ed7 bc3e 08ed e93e

sequential/dense_1/MatMul f4 [16, 16]
-0.39716527 -0.011943519 -0.21805285 -0.1764467 0.36761692 0.37998983 0.11599365 -0.2996049
0.07026735 -0.4047055 0.23803648 0.16945264 -0.21059936 -0.08617887 -0.09310418 -0.0403319
0.21572486 0.3395767 0.21353605 -0.09386012 -0.25217766 -0.10585672 0.005885214 -0.34372813
-0.08014873 -0.062497556 -0.36779234 0.35359862 0.4087108 -0.32936797 0.45892793 -0.1277348
0.04579279 0.3908449 -0.25893274 0.25975338 -0.11035344 0.26635936 -0.102808386 0.40242472
-0.06775063 -0.06617707 0.050483614 0.11353424 -0.1272738 -0.03805682 -0.3892975 0.15817735
-0.12188402 -0.26592022 0.35710493 -0.28108376 0.32251182 0.11437735 -0.13439478 -0.328626
0.03983718 0.15186152 -0.25448215 0.4269534 0.24694733 0.19230929 0.28276289 0.46772578
-0.19647947 0.17809126 0.20031892 -0.17062756 -0.3392163 -0.016310394 -0.34759942 -0.23370636
0.1625885 -0.3119145 0.1586664 -0.35298818 0.22718413 -0.22915407 -0.2855073 0.1727522
0.035954893 0.40718392 0.40860558 0.32051685 -0.25457814 -0.2234676 0.052225187 0.11162433
-0.26986235 0.42019472 -0.10910675 0.015262216 0.0022215485 0.1605153 -0.16893363 0.26529485
0.08272669 0.21591851 -0.37989825 -0.40109566 -0.060997605 -0.17175215 -0.07641863 0.3826696
0.34412184 0.29229447 0.17791793 0.30849484 0.23292957 0.1545878 0.31493065 0.2070014
0.27009538 0.37091324 -0.328654 -0.18670848 0.2022923 -0.2855047 -0.119936645 -0.025293797
0.061158866 0.17601416 -0.0883449 -0.016432941 -0.11069909 -0.41334498 -0.3059529 -0.30236393
0.11870387 0.19542757 -0.041465133 0.17284521 0.17734107 -0.333287 -0.09589958 0.12591943
-0.40075156 0.39302585 0.18235329 0.17272207 0.0840345 -0.40801385 0.2482807 -0.3494754
0.120735615 -0.15718657 0.04862708 -0.15270013 -0.051481098 -0.3598531 -0.16488132 0.055508733
0.27557358 -0.08060503 0.13640109 -0.352785 -0.22011763 -0.17907184 0.06859812 0.22173908
-0.01894483 -0.30612615 -0.20380583 0.08243689 0.08214018 -0.07197958 0.3699393 0.33400813
-0.40381753 0.057666928 0.42886767 0.0151978135 0.47883716 -0.12959854 0.18097973 -0.60200644
0.30028108 -0.06114185 -0.1810457 0.19880411 -0.27443343 -0.39525628 0.21279365 -0.25361297
-0.1430068 0.15410843 0.41073272 0.31212297 0.43235844 -0.23911083 0.18941116 -0.23222947
-0.39832258 0.395489 -1.078459 0.4098222 -0.28224456 0.15945038 0.29632744 0.23056504
0.09329292 0.03363359 -0.101612896 0.086304694 0.27634466 -0.041821968 0.35396785 -1.278019
-0.19843356 0.32458392 0.01967809 -0.34850472 0.03051135 0.21391651 -0.016588781 -0.2235154
-0.36329588 0.34455577 -0.37497553 -0.4193362 -0.15881267 0.16488594 -0.28188926 0.17833604
0.41151527 0.34980163 -0.038370267 0.15647939 0.040608674 0.032762766 0.26625812 0.22131982
-0.36763963 0.30693462 -0.28496116 0.076960415 0.21104401 0.07155718 0.22435458 0.56272715
-0.15377373 0.3500397 0.31587568 0.3719804 0.19663122 0.33968386 0.21608506 0.24321231
0.13042173 0.07530078 0.07818636 -0.32575762 0.34606916 -0.26836425 0.23458289 -0.4844114
00000000: 3f59 cbbe c0ae 43bc 3f49 5fbe 72ae 34be
00000010: 4938 bc3e 078e c23e 148e ed3d d065 99be
00000020: 54e8 8f3d 8f35 cfbe d6bf 733e fe84 2d3e
00000030: 5ca7 57be 8c7e b0bd 68ad bebd 1033 25bd
00000040: fae6 5c3e ffdc ad3e 32a9 5a3e bc39 c0bd
00000050: 6e1d 81be 68cb d8bd c1d8 c03b 22fd afbe
00000060: 0425 a4bd 70fd 7fbd 474f bcbe e10a b53e
00000070: 8b42 d13e eba2 a8be 9af8 ea3e e9cc 02be
00000080: 3891 3b3d d31c c83e d592 84be 65fe 843e
00000090: fc00 e2bd 4160 883e 348d d2bd 9d0a ce3e
000000a0: d8c0 8abd d887 87bd e8c7 4e3d a484 e83d
000000b0: 1054 02be 78e1 1bbd 0052 c7be 3ef9 213e
000000c0: 549e f9bd b226 88be 75d6 b63e 36ea 8fbe
000000d0: 4520 a53e ac3e ea3d c99e 09be ab41 a8be
000000e0: 502c 233d 9681 1b3e 7c4b 82be a399 da3e
000000f0: c3df 7c3e baec 443e 4cc6 903e c179 ef3e
00000100: ea31 49be 8e5d 363e 6720 4d3e feb8 2ebe
00000110: c2ad adbe 609d 85bc 8df8 b1be b850 6fbe
00000120: 9a7d 263e 42b3 9fbe 7279 223e deba b4be
00000130: f5a2 683e 5da7 6abe 032e 92be f4e5 303e
00000140: 7045 133d 697a d03e c034 d13e c91a a43e
00000150: 1158 82be b1d4 64be 14ea 553d 4c9b e43d
00000160: 662b 8abe c323 d73e 5c73 dfbd 600e 7a3c
00000170: 6697 113b 1f5e 243e f0fc 2cbe bad4 873e
00000180: 9c6c a93d be19 5d3e 0682 c2be 695c cdbe
00000190: a0d8 79bd ccdf 2fbe 5f81 9cbd 45ed c33e
000001a0: bd30 b03e 9fa7 953e 1e30 363e 09f3 9d3e
000001b0: 1785 6e3e 444c 1e3e 973e a13e 2df8 533e
000001c0: f149 8a3e 57e8 bd3e 5645 a8be 8230 3fbe
000001d0: b625 4f3e ac2d 92be 58a1 f5bd f034 cfbc
000001e0: b881 7a3d 0e3d 343e 2cee b4bd 609e 86bc
000001f0: 34b6 e2bd f4a1 d3be dca5 9cbe 72cf 9abe
00000200: 041b f33d 2a1e 483e 58d7 29bd 56fe 303e
00000210: e698 353e 98a4 aabe 0067 c4bd 06f1 003e
00000220: 4f2f cdbe af3a c93e d2ba 3a3e 0ede 303e
00000230: 481a ac3d 31e7 d0be 4c3d 7e3e 71ee b2be
00000240: 3c44 f73d 84f5 20be 302d 473d 6c5d 1cbe
00000250: d8dd 52bd aa3e b8be a6d6 28be 205d 633d
00000260: fb17 8d3e 4014 a5bd baac 0b3e 3ca0 b4be
00000270: 8466 61be 9c5e 37be 2c7d 8c3d 920f 633e
00000280: 3032 9bbc 91bc 9cbe 7ab2 50be acd4 a83d
00000290: 1c39 a83d 086a 93bd af68 bd3e 1d03 ab3e
000002a0: 2cc1 cebe 2834 6c3d 8b94 db3e 4000 793c
000002b0: 252a f53e 7bb5 04be c052 393e 181d 1abf
000002c0: 71be 993e e06f 7abd 0b64 39be 4e93 4b3e
000002d0: 8a82 8cbe 085f cabe 94e6 593e 8fd9 81be
000002e0: 6070 12be 9ace 1d3e 8f4b d23e 95ce 9f3e
000002f0: 165e dd3e 78d9 74be 00f5 413e 90cd 6dbe
00000300: f0f0 cbbe 897d ca3e f20a 8abf 37d4 d13e
00000310: 5c82 90be f646 233e 3bb8 973e 3e19 6c3e
00000320: 5c10 bf3d 60c3 093d 6c1a d0bd 84c0 b03d
00000330: 0c7d 8d3e 834d 2bbd 463b b53e 2096 a3bf
00000340: 2b32 4bbe dd2f a63e f233 a13c 366f b2be
00000350: f0f2 f93c ee0c 5b3e 32e5 87bc 39e1 64be
00000360: eb01 babe 9d69 b03e cbfc bfbe 3cb3 d6be
00000370: ca9f 22be dcd7 283e ca53 90be b99d 363e
00000380: 21b2 d23e 3319 b33e 242a 1dbd 223c 203e
00000390: 4855 263d 4032 063d fc52 883e aaa1 623e
000003a0: 433b bcbe 8926 9d3e 6ee6 91be 6c9d 9d3d
000003b0: ec1b 583e 928c 923d 35bd 653e e30e 103f
000003c0: dc76 1dbe 6738 b33e 75ba a13e 3774 be3e
000003d0: b259 493e 0beb ad3e 6745 5d3e a60c 793e
000003e0: 468d 053e 4c37 9a3d 2c20 a03d b4c9 a6be
000003f0: fa2f b13e 0a67 89be 7f36 703e c504 f8be

sequential/dense_2/MatMul f4 [1, 16]
0.038722873 -0.08861147 -0.0025325418 0.50778985 -0.44370803 -0.099676505 -0.49445686 -0.10153404
-0.6524938 -0.5739957 -0.4021343 -0.20273893 1.8014826 0.17141438 0.51323354 -0.66245705
00000000: e09b 1e3d ee79 b5bd 00f9 25bb 84fe 013f
00000010: b32d e3be 3223 ccbd 7329 fdbe 14f1 cfbd
00000020: d509 27bf 62f1 12bf 8ce4 cdbe cb9a 4fbe
00000030: fb96 e63f 4087 2f3e 4663 033f c996 29bf
